…
2020-11-01 18:41:02.517327: W tensorflow/core/common_runtime/gpu/gpu_bfc_allocator.cc:39] Overriding allow_growth setting because the TF_FORCE_GPU_ALLOW_GROWTH environment variable is set. Original config value was 0.
2020-11-01 18:41:02.517378: I tensorflow/core/common_runtime/gpu/gpu_device.cc:1402] Created TensorFlow device (/job:localhost/replica:0/task:0/device:GPU:0 with 13277 MB memory) -> physical GPU (device: 0, name: Tesla T4, pci bus id: 0000:00:04.0, compute capability: 7.5)
Model: "alex_net_model"
_________________________________________________________________
Layer (type)                 Output Shape              Param #   
=================================================================
conv2d (Conv2D)              (None, 54, 54, 96)        34944     
_________________________________________________________________
max_pooling2d (MaxPooling2D) multiple                  0         
_________________________________________________________________
re_lu (ReLU)                 multiple                  0         
_________________________________________________________________
batch_normalization (BatchNo (None, 54, 54, 96)        384       
_________________________________________________________________
conv2d_1 (Conv2D)            (None, 22, 22, 256)       614656    
_________________________________________________________________
batch_normalization_1 (Batch (None, 22, 22, 256)       1024      
_________________________________________________________________
conv2d_2 (Conv2D)            (None, 8, 8, 384)         885120    
_________________________________________________________________
batch_normalization_2 (Batch (None, 8, 8, 384)         1536      
_________________________________________________________________
conv2d_3 (Conv2D)            (None, 6, 6, 384)         1327488   
_________________________________________________________________
batch_normalization_3 (Batch (None, 6, 6, 384)         1536      
_________________________________________________________________
conv2d_4 (Conv2D)            (None, 4, 4, 256)         884992    
_________________________________________________________________
batch_normalization_4 (Batch (None, 4, 4, 256)         1024      
_________________________________________________________________
dense (Dense)                (None, 1024)              4195328   
_________________________________________________________________
batch_normalization_5 (Batch (None, 1024)              4096      
_________________________________________________________________
dense_1 (Dense)              (None, 1024)              1049600   
_________________________________________________________________
batch_normalization_6 (Batch (None, 1024)              4096      
_________________________________________________________________
dense_2 (Dense)              (None, 19)                19475     
=================================================================
Total params: 9,025,299
Trainable params: 9,018,451
Non-trainable params: 6,848
_________________________________________________________________
Epoch 1/20
WARNING:tensorflow:From /usr/local/lib/python3.6/dist-packages/tensorflow/python/data/ops/multi_device_iterator_ops.py:601: get_next_as_optional (from tensorflow.python.data.ops.iterator_ops) is deprecated and will be removed in a future version.
…
